…
trained on the ImageNet dataset to extract image features and denote the model instance as pretrained_net. The last few layers of this model include a global average pooling layer and a fully connected layer: they are not needed in the fully convolutional network. pretrained_net = torchvision.models.resnet18(pretrained=True) list(pretrained_net.children())[-3:]\nDownloading: \"https://download.pytorch.org/models/resnet18-f37072fd.pth\" to /\n↩→home/ci/.cache/torch/hub/checkpoints/resnet18-f37072fd.pth\n100%|￿￿￿￿￿￿￿￿￿￿| 44.7M/44.7M [00:00<00:00, 56.3MB/s]\n[Sequential(\n(0): BasicBlock(\n(conv1): Conv2d(256, 512, kernel_size=(3, 3), stride=(2, 2), padding=(1,␣\n↩→1), bias=False)\n(bn1): BatchNorm2d(512, eps=1e-05, momentum=0.1, affine=True, track_\n↩→running_stats=True)\n(relu): ReLU(inplace=True)\n(conv2): Conv2d(512, 512, kernel_size=(3, 3), stride=(1, 1), padding=(1,␣\n↩→1), bias=False)\n(bn2): BatchNorm2d(512, eps=1e-05, momentum=0.1, affine=True, track_\n(continues on next page)",
    "char_count": 1692
  },
  {
    "source": "d2l-en.pdf",
    "page": 701,
    "text": "661\nFully Convolutional Networks\n(continued from previous page)\n↩→running_stats=True)\n(downsample): Sequential(\n(0): Conv2d(256, 512, kernel_size=(1, 1), stride=(2, 2), bias=False)\n(1): BatchNorm2d(512, eps=1e-05, momentum=0.1, affine=True, track_\n↩→running_stats=True)\n)\n)\n(1): BasicBlock(\n(conv1): Conv2d(512, 512, kernel_size=(3, 3), stride=(1, 1), padding=(1,␣\n↩→1), bias=False)\n(bn1): BatchNorm2d(512, eps=1e-05, momentum=0.1, affine=True, track_\n↩→running_stats=True)\n(relu): ReLU(inplace=True)\n(conv2): Conv2d(512, 512, kernel_size=(3, 3), stride=(1, 1), padding=(1,␣\n↩→1), bias=False)\n(bn2): BatchNorm2d(512, eps=1e-05, momentum=0.1, affine=True, track_\n↩→running_stats=True)\n)\n),\nAdaptiveAvgPool2d(output_size=(1, 1)),\nLinear(in_features=512, out_features=1000, bias=True)]\nNext, we create the fully convolutional network instance net. It copies all the pretrained layers in the ResNet-18 except for the final global average pooling layer and the fully con- nected layer that are closest to the ou
…
